…
  BASE_LR: 0.0005
  BETAS: [0.9, 0.999]
  BIAS_LR_FACTOR: 1.0
  CHECKPOINT_PERIOD: 1
  DAMPENING: 0.0
  EPOCH: 10
  EPS: 1e-08
  EVAL_PERIOD: 1
  GRAD_CLIP: 0.1
  GRAD_CLIP_TYPE: value
  MOMENTUM: 0.0
  NAME: Adam
  NESTEROV: 0.0
  NORM_TYPE: 2.0
  WEIGHT_DECAY: 0.0
  WEIGHT_DECAY_BIAS: 0.0
  WEIGHT_DECAY_NORM: 0.0
VERSION: 1
[07/07 15:45:45] xmodaler INFO: Full config saved to ./output/config.yaml
[07/07 15:45:45] xl.utils.env INFO: Using a generated random seed 45197980
[07/07 15:45:47] xl.engine.defaults INFO: Model:
TransformerEncoderDecoder(
  (token_embed): TokenBaseEmbedding(
    (embeddings): Embedding(10200, 512)
    (embeddings_act): ReLU()
    (embeddings_dropout): Dropout(p=0.5, inplace=False)
    (embeddings_pos): SinusoidEncoding()
  )
  (visual_embed): VisualBaseEmbedding(
    (embeddings): Linear(in_features=2048, out_features=512, bias=True)
    (embeddings_act): ReLU()
    (embeddings_dropout): Dropout(p=0.5, inplace=False)
  )
  (encoder): TransformerEncoder(
    (layers): ModuleList(
      (0): BertLayer(
        (attention): BertAttention(
          (self): BertSelfAttention(
            (query): Linear(in_features=512, out_features=512, bias=True)
            (key): Linear(in_features=512, out_features=512, bias=True)
            (value): Linear(in_features=512, out_features=512, bias=True)
            (dropout): Dropout(p=0.1, inplace=False)
          )
          (output): BertSelfOutput(
            (dense): Linear(in_features=512, out_features=512, bias=True)
            (LayerNorm): LayerNorm((512,), eps=1e-12, elementwise_affine=True)
            (dropout): Dropout(p=0.1, inplace=False)
          )
        )
        (intermediate): BertIntermediate(
          (dense): Linear(in_features=512, out_features=2048, bias=True)
          (dropout): Dropout(p=0.1, inplace=False)
        )
        (output): BertOutput(
          (dense): Linear(in_features=2048, out_features=512, bias=True)
          (LayerNorm): LayerNorm((512,), eps=1e-12, elementwise_affine=True)
          (dropout): Dropout(p=0.1, inplace=False)
        )
      )
      (1): BertLayer(
        (attention): BertAttention(
          (self): BertSelfAttention(
            (query): Linear(in_features=512, out_features=512, bias=True)
            (key): Linear(in_features=512, out_features=512, bias=True)
            (value): Linear(in_features=512, out_features=512, bias=True)
            (dropout): Dropout(p=0.1, inplace=False)
          )
          (output): BertSelfOutput(
            (dense): Linear(in_features=512, out_features=512, bias=True)
            (LayerNorm): LayerNorm((512,), eps=1e-12, elementwise_affine=True)
            (dropout): Dropout(p=0.1, inplace=False)
          )
        )
        (intermediate): BertIntermediate(
          (dense): Linear(in_features=512, out_features=2048, bias=True)
          (dropout): Dropout(p=0.1, inplace=False)
        )
        (output): BertOutput(
          (dense): Linear(in_features=2048, out_features=512, bias=True)
          (LayerNorm): LayerNorm((512,), eps=1e-12, elementwise_affine=True)
          (dropout): Dropout(p=0.1, inplace=False)
        )
      )
    )
  )
  (decoder): TransformerDecoder(
    (g_layers): ModuleList(
      (0): BertGenerationLayer(
        (self_attn): BertAttention(
          (self): BertSelfAttention(
            (query): Linear(in_features=512, out_features=512, bias=True)
            (key): Linear(in_features=512, out_features=512, bias=True)
            (value): Linear(in_features=512, out_features=512, bias=True)
            (dropout): Dropout(p=0.1, inplace=False)
          )
          (output): BertSelfOutput(
            (dense): Linear(in_features=512, out_features=512, bias=True)
            (LayerNorm): LayerNorm((512,), eps=1e-12, elementwise_affine=True)
            (dropout): Dropout(p=0.1, inplace=False)
          )
        )
        (x_att): BertCrossAttention(
          (self): BertXAttention(
            (query): Linear(in_features=512, out_features=512, bias=True)
            (key): Linear(in_features=512, out_features=512, bias=True)
            (value): Linear(in_features=512, out_features=512, bias=True)
            (dropout): Dropout(p=0.1, inplace=False)
          )
          (output): BertSelfOutput(
            (dense): Linear(in_features=512, out_features=512, bias=True)
            (LayerNorm): LayerNorm((512,), eps=1e-12, elementwise_affine=True)
            (dropout): Dropout(p=0.1, inplace=False)
          )
        )
        (intermediate): BertIntermediate(
          (dense): Linear(in_features=512, out_features=2048, bias=True)
          (dropout): Dropout(p=0.1, inplace=False)
        )
        (output): BertOutput(
          (dense): Linear(in_features=2048, out_features=512, bias=True)
          (LayerNorm): LayerNorm((512,), eps=1e-12, elementwise_affine=True)
          (dropout): Dropout(p=0.1, inplace=False)
        )
      )
      (1): BertGenerationLayer(
        (self_attn): BertAttention(
          (self): BertSelfAttention(
            (query): Linear(in_features=512, out_features=512, bias=True)
            (key): Linear(in_features=512, out_features=512, bias=True)
            (value): Linear(in_features=512, out_features=512, bias=True)
            (dropout): Dropout(p=0.1, inplace=False)
          )
          (output): BertSelfOutput(
            (dense): Linear(in_features=512, out_features=512, bias=True)
            (LayerNorm): LayerNorm((512,), eps=1e-12, elementwise_affine=True)
            (dropout): Dropout(p=0.1, inplace=False)
          )
        )
        (x_att): BertCrossAttention(
          (self): BertXAttention(
            (query): Linear(in_features=512, out_features=512, bias=True)
            (key): Linear(in_features=512, out_features=512, bias=True)
            (value): Linear(in_features=512, out_features=512, bias=True)
            (dropout): Dropout(p=0.1, inplace=False)
          )
          (output): BertSelfOutput(
            (dense): Linear(in_features=512, out_features=512, bias=True)
            (LayerNorm): LayerNorm((512,), eps=1e-12, elementwise_affine=True)
            (dropout): Dropout(p=0.1, inplace=False)
          )
        )
        (intermediate): BertIntermediate(
          (dense): Linear(in_features=512, out_features=2048, bias=True)
          (dropout): Dropout(p=0.1, inplace=False)
        )
        (output): BertOutput(
          (dense): Linear(in_features=2048, out_features=512, bias=True)
          (LayerNorm): LayerNorm((512,), eps=1e-12, elementwise_affine=True)
          (dropout): Dropout(p=0.1, inplace=False)
        )
      )
    )
  )
  (predictor): BasePredictor(
    (logits): Linear(in_features=512, out_features=10200, bias=True)
    (dropout): Dropout(p=0.5, inplace=False)
  )
  (greedy_decoder): GreedyDecoder()
  (beam_searcher): BeamSearcher()
)
[07/07 15:45:48] xl.datasets.common INFO: Serializing 113287 elements to byte tensors and concatenating them all ...
[07/07 15:45:49] xl.datasets.common INFO: Serialized dataset takes 115.74 MiB
[07/07 15:45:49] xl.datasets.common INFO: Serializing 5000 elements to byte tensors and concatenating them all ...
…
  BASE_LR: 0.0005
  BETAS: [0.9, 0.999]
  BIAS_LR_FACTOR: 1.0
  CHECKPOINT_PERIOD: 1
  DAMPENING: 0.0
  EPOCH: 30
  EPS: 1e-08
  EVAL_PERIOD: 1
  GRAD_CLIP: 0.1
  GRAD_CLIP_TYPE: value
  MOMENTUM: 0.9
  NAME: Adam
  NESTEROV: 0.0
  NORM_TYPE: 2.0
  WEIGHT_DECAY: 0.0
  WEIGHT_DECAY_BIAS: 0.0
  WEIGHT_DECAY_NORM: 0.0
VERSION: 1
[07/07 19:03:42] xmodaler INFO: Full config saved to ./output/config.yaml
[07/07 19:03:42] xl.utils.env INFO: Using a generated random seed 42065574
[07/07 19:03:43] xl.engine.defaults INFO: Model:
TransformerEncoderDecoder(
  (token_embed): TokenBaseEmbedding(
    (embeddings): Embedding(10200, 512)
    (embeddings_norm): LayerNorm((512,), eps=1e-05, elementwise_affine=True)
    (embeddings_dropout): Dropout(p=0.1, inplace=False)
    (embeddings_pos): SinusoidEncoding()
  )
  (visual_embed): VisualBaseEmbedding(
    (embeddings): Linear(in_features=2048, out_features=512, bias=True)
    (embeddings_act): ReLU()
    (embeddings_norm): LayerNorm((512,), eps=1e-05, elementwise_affine=True)
    (embeddings_dropout): Dropout(p=0.5, inplace=False)
  )
  (encoder): TransformerEncoder(
    (layers): ModuleList(
      (0): BertLayer(
        (attention): BertAttention(
          (self): BertSelfAttention(
            (query): Linear(in_features=512, out_features=512, bias=True)
            (key): Linear(in_features=512, out_features=512, bias=True)
            (value): Linear(in_features=512, out_features=512, bias=True)
            (dropout): Dropout(p=0.1, inplace=False)
          )
          (output): BertSelfOutput(
            (dense): Linear(in_features=512, out_features=512, bias=True)
            (LayerNorm): LayerNorm((512,), eps=1e-12, elementwise_affine=True)
            (dropout): Dropout(p=0.1, inplace=False)
          )
        )
        (intermediate): BertIntermediate(
          (dense): Linear(in_features=512, out_features=2048, bias=True)
          (dropout): Dropout(p=0.1, inplace=False)
        )
        (output): BertOutput(
          (dense): Linear(in_features=2048, out_features=512, bias=True)
          (LayerNorm): LayerNorm((512,), eps=1e-12, elementwise_affine=True)
          (dropout): Dropout(p=0.1, inplace=False)
        )
      )
      (1): BertLayer(
        (attention): BertAttention(
          (self): BertSelfAttention(
            (query): Linear(in_features=512, out_features=512, bias=True)
            (key): Linear(in_features=512, out_features=512, bias=True)
            (value): Linear(in_features=512, out_features=512, bias=True)
            (dropout): Dropout(p=0.1, inplace=False)
          )
          (output): BertSelfOutput(
            (dense): Linear(in_features=512, out_features=512, bias=True)
            (LayerNorm): LayerNorm((512,), eps=1e-12, elementwise_affine=True)
            (dropout): Dropout(p=0.1, inplace=False)
          )
        )
        (intermediate): BertIntermediate(
          (dense): Linear(in_features=512, out_features=2048, bias=True)
          (dropout): Dropout(p=0.1, inplace=False)
        )
        (output): BertOutput(
          (dense): Linear(in_features=2048, out_features=512, bias=True)
          (LayerNorm): LayerNorm((512,), eps=1e-12, elementwise_affine=True)
          (dropout): Dropout(p=0.1, inplace=False)
        )
      )
      (2): BertLayer(
        (attention): BertAttention(
          (self): BertSelfAttention(
            (query): Linear(in_features=512, out_features=512, bias=True)
            (key): Linear(in_features=512, out_features=512, bias=True)
            (value): Linear(in_features=512, out_features=512, bias=True)
            (dropout): Dropout(p=0.1, inplace=False)
          )
          (output): BertSelfOutput(
            (dense): Linear(in_features=512, out_features=512, bias=True)
            (LayerNorm): LayerNorm((512,), eps=1e-12, elementwise_affine=True)
            (dropout): Dropout(p=0.1, inplace=False)
          )
        )
        (intermediate): BertIntermediate(
          (dense): Linear(in_features=512, out_features=2048, bias=True)
          (dropout): Dropout(p=0.1, inplace=False)
        )
        (output): BertOutput(
          (dense): Linear(in_features=2048, out_features=512, bias=True)
          (LayerNorm): LayerNorm((512,), eps=1e-12, elementwise_affine=True)
          (dropout): Dropout(p=0.1, inplace=False)
        )
      )
    )
  )
  (decoder): TransformerDecoder(
    (g_layers): ModuleList(
      (0): BertGenerationLayer(
        (self_attn): BertAttention(
          (self): BertSelfAttention(
            (query): Linear(in_features=512, out_features=512, bias=True)
            (key): Linear(in_features=512, out_features=512, bias=True)
            (value): Linear(in_features=512, out_features=512, bias=True)
            (dropout): Dropout(p=0.1, inplace=False)
          )
          (output): BertSelfOutput(
            (dense): Linear(in_features=512, out_features=512, bias=True)
            (LayerNorm): LayerNorm((512,), eps=1e-12, elementwise_affine=True)
            (dropout): Dropout(p=0.1, inplace=False)
          )
        )
        (x_att): BertCrossAttention(
          (self): BertXAttention(
            (query): Linear(in_features=512, out_features=512, bias=True)
            (key): Linear(in_features=512, out_features=512, bias=True)
            (value): Linear(in_features=512, out_features=512, bias=True)
            (dropout): Dropout(p=0.1, inplace=False)
          )
          (output): BertSelfOutput(
            (dense): Linear(in_features=512, out_features=512, bias=True)
            (LayerNorm): LayerNorm((512,), eps=1e-12, elementwise_affine=True)
            (dropout): Dropout(p=0.1, inplace=False)
          )
        )
        (intermediate): BertIntermediate(
          (dense): Linear(in_features=512, out_features=2048, bias=True)
          (dropout): Dropout(p=0.1, inplace=False)
        )
        (output): BertOutput(
          (dense): Linear(in_features=2048, out_features=512, bias=True)
          (LayerNorm): LayerNorm((512,), eps=1e-12, elementwise_affine=True)
          (dropout): Dropout(p=0.1, inplace=False)
        )
      )
      (1): BertGenerationLayer(
        (self_attn): BertAttention(
          (self): BertSelfAttention(
            (query): Linear(in_features=512, out_features=512, bias=True)
            (key): Linear(in_features=512, out_features=512, bias=True)
            (value): Linear(in_features=512, out_features=512, bias=True)
            (dropout): Dropout(p=0.1, inplace=False)
          )
          (output): BertSelfOutput(
            (dense): Linear(in_features=512, out_features=512, bias=True)
            (LayerNorm): LayerNorm((512,), eps=1e-12, elementwise_affine=True)
            (dropout): Dropout(p=0.1, inplace=False)
          )
        )
        (x_att): BertCrossAttention(
          (self): BertXAttention(
            (query): Linear(in_features=512, out_features=512, bias=True)
            (key): Linear(in_features=512, out_features=512, bias=True)
            (value): Linear(in_features=512, out_features=512, bias=True)
            (dropout): Dropout(p=0.1, inplace=False)
          )
          (output): BertSelfOutput(
            (dense): Linear(in_features=512, out_features=512, bias=True)
            (LayerNorm): LayerNorm((512,), eps=1e-12, elementwise_affine=True)
            (dropout): Dropout(p=0.1, inplace=False)
          )
        )
        (intermediate): BertIntermediate(
          (dense): Linear(in_features=512, out_features=2048, bias=True)
          (dropout): Dropout(p=0.1, inplace=False)
        )
        (output): BertOutput(
          (dense): Linear(in_features=2048, out_features=512, bias=True)
          (LayerNorm): LayerNorm((512,), eps=1e-12, elementwise_affine=True)
          (dropout): Dropout(p=0.1, inplace=False)
        )
      )
      (2): BertGenerationLayer(
        (self_attn): BertAttention(
          (self): BertSelfAttention(
            (query): Linear(in_features=512, out_features=512, bias=True)
            (key): Linear(in_features=512, out_features=512, bias=True)
            (value): Linear(in_features=512, out_features=512, bias=True)
            (dropout): Dropout(p=0.1, inplace=False)
          )
          (output): BertSelfOutput(
            (dense): Linear(in_features=512, out_features=512, bias=True)
            (LayerNorm): LayerNorm((512,), eps=1e-12, elementwise_affine=True)
            (dropout): Dropout(p=0.1, inplace=False)
          )
        )
        (x_att): BertCrossAttention(
          (self): BertXAttention(
            (query): Linear(in_features=512, out_features=512, bias=True)
            (key): Linear(in_features=512, out_features=512, bias=True)
            (value): Linear(in_features=512, out_features=512, bias=True)
            (dropout): Dropout(p=0.1, inplace=False)
          )
          (output): BertSelfOutput(
            (dense): Linear(in_features=512, out_features=512, bias=True)
            (LayerNorm): LayerNorm((512,), eps=1e-12, elementwise_affine=True)
            (dropout): Dropout(p=0.1, inplace=False)
          )
        )
        (intermediate): BertIntermediate(
          (dense): Linear(in_features=512, out_features=2048, bias=True)
          (dropout): Dropout(p=0.1, inplace=False)
        )
        (output): BertOutput(
          (dense): Linear(in_features=2048, out_features=512, bias=True)
          (LayerNorm): LayerNorm((512,), eps=1e-12, elementwise_affine=True)
          (dropout): Dropout(p=0.1, inplace=False)
        )
      )
    )
  )
  (predictor): BasePredictor(
    (logits): Linear(in_features=512, out_features=10200, bias=True)
    (dropout): Dropout(p=0.5, inplace=False)
  )
  (greedy_decoder): GreedyDecoder()
  (beam_searcher): BeamSearcher()
)
[07/07 19:03:44] xl.datasets.common INFO: Serializing 113287 elements to byte tensors and concatenating them all ...
[07/07 19:03:45] xl.datasets.common INFO: Serialized dataset takes 115.74 MiB
[07/07 19:03:45] xl.datasets.common INFO: Serializing 5000 elements to byte tensors and concatenating them all ...
…
  BASE_LR: 0.0005
  BETAS: [0.9, 0.999]
  BIAS_LR_FACTOR: 1.0
  CHECKPOINT_PERIOD: 1
  DAMPENING: 0.0
  EPOCH: 30
  EPS: 1e-08
  EVAL_PERIOD: 1
  GRAD_CLIP: 0.1
  GRAD_CLIP_TYPE: value
  MOMENTUM: 0.9
  NAME: Adam
  NESTEROV: 0.0
  NORM_TYPE: 2.0
  WEIGHT_DECAY: 0.0
  WEIGHT_DECAY_BIAS: 0.0
  WEIGHT_DECAY_NORM: 0.0
VERSION: 1
[07/07 21:01:22] xmodaler INFO: Full config saved to ./output/config.yaml
[07/07 21:01:22] xl.utils.env INFO: Using a generated random seed 22510294
[07/07 21:01:24] xl.engine.defaults INFO: Model:
RnnAttEncoderDecoder(
  (token_embed): TokenBaseEmbedding(
    (embeddings): Embedding(10200, 1024)
    (embeddings_act): ReLU()
    (embeddings_dropout): Dropout(p=0.5, inplace=False)
  )
  (visual_embed): VisualBaseEmbedding(
    (embeddings): Linear(in_features=2048, out_features=1024, bias=True)
    (embeddings_act): ReLU()
    (embeddings_dropout): Dropout(p=0.5, inplace=False)
  )
  (encoder): UpDownEncoder()
  (decoder): UpDownDecoder(
    (lstm1): LSTMCell(3072, 1024)
    (lstm2): LSTMCell(2048, 1024)
    (att): BaseAttention(
      (w_h): Linear(in_features=1024, out_features=512, bias=False)
      (act): Tanh()
      (w_alpha): Linear(in_features=512, out_features=1, bias=False)
      (softmax): Softmax(dim=-1)
    )
    (p_att_feats): Linear(in_features=1024, out_features=512, bias=True)
  )
  (predictor): BasePredictor(
    (logits): Linear(in_features=1024, out_features=10200, bias=True)
    (dropout): Dropout(p=0.5, inplace=False)
  )
  (greedy_decoder): GreedyDecoder()
  (beam_searcher): BeamSearcher()
)
[07/07 21:01:24] xl.datasets.common INFO: Serializing 113287 elements to byte tensors and concatenating them all ...
[07/07 21:01:26] xl.datasets.common INFO: Serialized dataset takes 115.74 MiB
[07/07 21:01:26] xl.datasets.common INFO: Serializing 5000 elements to byte tensors and concatenating them all ...
…
  AMSGRAD: False
  BASE_LR: 0.0005
  BETAS: [0.9, 0.999]
  BIAS_LR_FACTOR: 1.0
  CHECKPOINT_PERIOD: 1
  DAMPENING: 0.0
  EPOCH: 50
  EPS: 1e-08
  EVAL_PERIOD: 1
  GRAD_CLIP: 0.1
  GRAD_CLIP_TYPE: value
  MOMENTUM: 0.9
  NAME: Adam
  NESTEROV: 0.0
  NORM_TYPE: 2.0
  WEIGHT_DECAY: 0.0
  WEIGHT_DECAY_BIAS: 0.0
  WEIGHT_DECAY_NORM: 0.0
VERSION: 1
[07/07 22:55:00] xmodaler INFO: Full config saved to ./output/config.yaml
[07/07 22:55:00] xl.utils.env INFO: Using a generated random seed 219328
[07/07 22:56:26] xl.engine.defaults INFO: Model:
RnnAttEncoderDecoder(
  (token_embed): TokenBaseEmbedding(
    (embeddings): Embedding(5492, 1024)
    (embeddings_act): ReLU()
    (embeddings_dropout): Dropout(p=0.5, inplace=False)
  )
  (visual_embed): VisualBaseEmbedding(
    (embeddings): Linear(in_features=2048, out_features=1024, bias=True)
    (embeddings_act): ReLU()
    (embeddings_dropout): Dropout(p=0.5, inplace=False)
  )
  (encoder): Encoder()
  (decoder): SALSTMDecoder(
    (att): BaseAttention(
      (w_h): Linear(in_features=1024, out_features=512, bias=False)
      (act): Tanh()
      (w_alpha): Linear(in_features=512, out_features=1, bias=False)
      (softmax): Softmax(dim=-1)
    )
    (p_att_feats): Linear(in_features=1024, out_features=512, bias=True)
    (lstm): LSTMCell(2048, 1024)
  )
  (predictor): BasePredictor(
    (logits): Linear(in_features=1024, out_features=5492, bias=True)
    (dropout): Dropout(p=0.5, inplace=False)
  )
  (greedy_decoder): GreedyDecoder()
  (beam_searcher): BeamSearcher()
)
[07/07 22:56:27] xl.datasets.common INFO: Serializing 48748 elements to byte tensors and concatenating them all ...
[07/07 22:56:28] xl.datasets.common INFO: Serialized dataset takes 19.99 MiB
[07/07 22:56:28] xl.datasets.common INFO: Serializing 97 elements to byte tensors and concatenating them all ...
…
